methods/_UDALN/checkpoints/houston18_5_S1=0.001_20000_10000_S2=0.001_30000_20000_S3=6e-05_15000_5000/convolution_hr2msi.pth (torch, 3087 bytes, 8 tensors)

conv2d_list.0.weight f4 [1, 5, 1, 1]
0.00016923732 -0.00013441648 -0.00045837573 0.0014269833 -0.0006802168
00000000: 4c75 3139 26f2 0cb9 2652 f0b9 9d09 bb3a
00000010: 9450 32ba

conv2d_list.1.weight f4 [1, 6, 1, 1]
-7.03988e-05 -7.5520205e-05 -6.576747e-05 -7.6323275e-05 -7.245949e-05 -6.918372e-05
00000000: 11a3 93b8 9a60 9eb8 a4ec 89b8 bf0f a0b8
00000010: 64f5 97b8 ba16 91b8

conv2d_list.2.weight f4 [1, 7, 1, 1]
-5.648673e-08 2.7219676e-06 -6.0895204e-06 2.5162535e-05 -2.4226138e-05 2.021512e-05 -5.115483e-06
00000000: d19b 72b3 0cab 3636 9554 ccb6 2214 d337
00000010: 3c39 cbb7 a493 a937 aaa5 abb6

conv2d_list.3.weight f4 [1, 5, 1, 1]
0.565661 0.44855106 0.36901164 0.32321912 0.28036085
00000000: 29cf 103f 7ca8 e53e 18ef bc3e fa7c a53e
00000010: 758b 8f3e

conv2d_list.4.weight f4 [1, 6, 1, 1]
-0.025798557 -0.016063409 -0.013244407 -0.01890223 -0.02724694 -0.000121088895
00000000: 7f57 d3bc 6997 83bc 12ff 58bc d9d8 9abc
00000010: fa34 dfbc 1bf1 fdb8

conv2d_list.5.weight f4 [1, 5, 1, 1]
-8.406631e-05 -0.0001809259 -2.783683e-05 -0.000103584614 -0.00012083342
00000000: c24c b0b8 edb6 3db9 2383 e9b7 913b d9b8
00000010: f367 fdb8

conv2d_list.6.weight f4 [1, 11, 1, 1]
11.746798 11.766872 11.788537 11.808206 11.821926 11.826572 11.820764 11.805933
11.785154 11.762319 11.740977
00000000: e2f2 3b41 1c45 3c41 d99d 3c41 69ee 3c41
00000010: 9c26 3d41 a439 3d41 d921 3d41 1ae5 3c41
00000020: fe8f 3c41 7532 3c41 0bdb 3b41

conv2d_list.7.weight f4 [1, 14, 1, 1]
0.72584206 0.7636651 0.77928454 0.76116633 0.7506135 0.74611926 0.66638803 0.53901106
0.42793423 0.3405622 0.28051972 0.22638422 0.19021034 0.105898514
00000000: c9d0 393f 8e7f 433f 317f 473f ccdb 423f
00000010: 3528 403f ac01 3f3f 6898 2a3f a1fc 093f
00000020: 321a db3e 2b5e ae3e 48a0 8f3e 44d1 673e
00000030: 80c6 423e 52e1 d83d
