methods/_UDALN/checkpoints/houston18_5_S1=0.001_20000_10000_S2=0.001_30000_20000_S3=6e-05_15000_5000/PSF.pth (torch, 939 bytes, 1 tensors)

psf.weight f4 [1, 1, 5, 5]
0.02476561 0.034018163 0.038428437 0.034656923 0.024065224 0.033783685 0.047391675 0.05302821
0.04664424 0.03455387 0.037895456 0.053635087 0.058580033 0.053961985 0.037534174 0.034077875
0.047681067 0.0535183 0.0470672 0.03484933 0.024487702 0.033441965 0.038092867 0.033980478
0.024411248
00000000: 40e1 ca3c a156 0b3d 2367 1d3d 6bf4 0d3d
00000010: 6f24 c53c c360 0a3d c61d 423d 1c34 593d
00000020: 080e 3f3d 5c88 0d3d 4438 1b3d 77b0 5b3d
00000030: 9ef1 6f3d 3e07 5d3d 6fbd 193d 3e95 0b3d
00000040: 394d 433d 0136 5b3d 89c9 403d 2cbe 0e3d
00000050: 6f9a c83c 71fa 083d 4407 1c3d 1d2f 0b3d
00000060: 19fa c73c
