methods/_UDALN/checkpoints/houston18_5_S1=0.001_20000_10000_S2=0.001_30000_20000_S3=6e-05_15000_5000/spectral_upsample.pth (torch, 10839 bytes, 6 tensors)

sequential.0.weight f4 [16, 8, 1, 1]
0	0x3e9019d3	0.28144702
1	0x3d29b490	0.041431963
2	0x3b9967f9	0.004681584
3	0x3cda1455	0.026621023
4	0x3ee03af5	0.4379498
5	0x3e21fac2	0.15818313
6	0xbe1380c4	-0.14404589
7	0xbf3141fd	-0.69241315
8	0xbdbf2806	-0.09333806
9	0xbe88c642	-0.2671376
10	0x3e9cdbd3	0.30636463
11	0xbd51f4c5	-0.05125882
12	0xbeade190	-0.33961153
13	0x3e08b71b	0.13351099
14	0xbe06a434	-0.13148576
15	0x3f5fbc87	0.87397045
16	0xbb52c383	-0.003215999
17	0xbe5aa304	-0.21351248
18	0x3e965d9c	0.29368293
19	0x3eecf615	0.46281496
20	0xbf174f80	-0.5910568
21	0xbeaa5f41	-0.33275798
22	0xbec7964d	-0.38981858
23	0x3efd357a	0.49454862
24	0xbe3f62a9	-0.1868998
25	0x3c9f4c32	0.019445512
26	0xbd9befdf	-0.07614111
27	0xbe543c3d	-0.20726104
28	0xbea86aaf	-0.32893893
29	0xbeaeeef9	-0.34166697
30	0xbecc30ee	-0.3988108
31	0xbf18b0fe	-0.5964507
32	0x3e5a46f2	0.21316126
33	0x3f35288a	0.7076498
34	0x3e8886ea	0.2666543
35	0xbe224669	-0.15847172
36	0x3e0644cf	0.13112186
37	0xbd827d83	-0.06371596
38	0xbe50eed8	-0.20403612
39	0xbdbb966d	-0.09159551
40	0xbeabe011	-0.33569387
41	0xbf2f0230	-0.6836271
42	0x3eb6ed6f	0.35728022
43	0x3e6dbb98	0.23216093
44	0xbcea291d	-0.028584057
45	0x3e846b0f	0.2586293
46	0x3e0cbf3d	0.13744827
47	0x3f0103ec	0.5039661
48	0x3d8fd90b	0.070238195
49	0x3dc03b65	0.093863286
50	0x3e74f0d2	0.2391999
51	0x3e98eab0	0.29866552
52	0x3effae05	0.49937454
53	0x3ed126a9	0.40849808
54	0xbdaab98b	-0.08336171
55	0xbd17febe	-0.037108175
56	0xbd959bf4	-0.07305136
57	0x3ea8a5ad	0.329389
58	0x3e6d0d68	0.23149645
59	0x3ed3411d	0.41260615
60	0x3e91f9fb	0.28511032
61	0xbe8df8d7	-0.27728912
62	0x3dce19cb	0.10063513
63	0x3f615b6a	0.8803011
64	0x3ea7d651	0.32780698
65	0x3d85d055	0.06533877
66	0x3e7006bb	0.23440067
67	0xbe881bb9	-0.2658365
68	0xbe703d27	-0.23460828
69	0x3e29953c	0.16560835
70	0xbf1fb572	-0.6238624
71	0x3e79c4c0	0.2439146
72	0xbea32456	-0.3186366
73	0x3daf2d0f	0.08553516
74	0x3e1766b8	0.14785278
75	0x3e6b95b6	0.23006329
76	0x3d87972e	0.06620632
77	0xbecc60db	-0.39917645
78	0xbe677b73	-0.22605686
79	0xbf3dc0b8	-0.7412219
80	0x3ef0aa8b	0.47005114
81	0x3bd3d784	0.0064649004
82	0xbf19174b	-0.5980117
83	0xbe1075da	-0.14107457
84	0x3ddac46e	0.10681997
85	0xbe307b15	-0.17234452
86	0x3dab019a	0.08349915
87	0x3efadbff	0.4899597
88	0xbe021592	-0.12703541
89	0x3dd427bf	0.103591435
90	0x3d417f25	0.047240395
91	0xbec60f72	-0.3868366
92	0xbd5cf774	-0.053946927
93	0xbd555c31	-0.052089874
94	0x3ee42982	0.44562918
95	0x3ea02133	0.3127533
96	0xbeee2867	-0.465152
97	0xbeb94a41	-0.36189464
98	0xbe20c717	-0.15700947
99	0xbdde0aee	-0.108419284
100	0xbe95ea4f	-0.29280326
101	0xbdd8e997	-0.10591429
102	0xbf1e81d4	-0.6191685
103	0x3ebf172d	0.3732237
104	0x3f01584a	0.50525343
105	0x3e8e1ded	0.27757207
106	0x3e95ea86	0.2928049
107	0x3e97ce88	0.29649758
108	0xbe9444bd	-0.28958693
109	0xbbeb9d2c	-0.007190367
110	0x3f1ffa90	0.62491703
111	0xbe7aa8f1	-0.24478509
112	0x3d129bb4	0.03579302
113	0x3d16bd8a	0.036801852
114	0xbe46794e	-0.19382212
115	0xbe099db6	-0.13439068
116	0xbc28d160	-0.010303825
117	0x3f2745a5	0.65340644
118	0x3de09ab7	0.109670095
119	0x3f277ec3	0.654278
120	0x3e540a4b	0.20707051
121	0x3e1894ea	0.14900556
122	0xbeeb5fc3	-0.45971498
123	0x3e84c45f	0.2593107
124	0x3ed54fae	0.41662353
125	0xbea15e7b	-0.31517395
126	0xbee63dbe	-0.4496898
127	0x3e7c9007	0.24664317

sequential.0.bias f4 [16]
0	0xbea8231d	-0.3283929
1	0xbeb00158	-0.34376025
2	0xbe60e3da	-0.21961918
3	0x3d4cd4b8	0.050007552
4	0x3d15f115	0.036606867
5	0xbeaa72f4	-0.33290827
6	0x3e04e1b4	0.12976724
7	0x3e0305a2	0.12795117
8	0x3e533dcc	0.20629042
9	0xbe76fd80	-0.2412014
10	0x3e8532a8	0.2601521
11	0x3c868156	0.016419094
12	0xbe9004b8	-0.281286
13	0xbd678aa4	-0.056528702
14	0x3df8b867	0.12144547
15	0x3e1d09f8	0.15335834

sequential.2.weight f4 [32, 16, 1, 1]
0	0x3e056b82	0.13029292
1	0x3d2b8a83	0.041880142
2	0xbec9969d	-0.3937272
3	0x3e1f62c4	0.1556502
4	0x3e7c310c	0.24628085
5	0xbe5c92c6	-0.21540365
6	0x3d04756f	0.032338556
7	0xbe29e224	-0.16590172
8	0xbeb79bbe	-0.3586101
9	0xbb49ad74	-0.0030773552
10	0xbe07bb8e	-0.1325514
11	0xbd8c410f	-0.068483464
12	0xbe831dc6	-0.25608653
13	0x3e80d974	0.25165904
14	0x3e702139	0.23450173
15	0xbe3188c3	-0.17337327
16	0xbe6bf4f1	-0.23042656
17	0x3cd597e2	0.0260734
18	0xbd252138	-0.040314883
19	0xbdcb2278	-0.09918684
20	0xbee5bfda	-0.44872934
21	0x3e6aecad	0.22941847
22	0xbe5d04b2	-0.21583822
23	0xbe649b6e	-0.22324917
24	0xbeb1f80a	-0.3475955
25	0xbe331301	-0.17487718
26	0xbe04a314	-0.12952834
27	0xbe34f3ba	-0.176711
28	0x3e4addac	0.19811124
29	0xbe306655	-0.17226537
30	0xbe47ff44	-0.1953097
31	0xbdb6675c	-0.08906433
32	0xbecb82b9	-0.3974817
33	0x3e5aaa8d	0.21354122
34	0x3e3d19c7	0.18466865
35	0xbe21f508	-0.15816128
36	0xbe7e56a3	-0.24837737
37	0x3dbb76c9	0.09153516
38	0x3e11ca5c	0.1423735
39	0x3ea4d1c2	0.32191283
40	0xbe45a2bc	-0.1930036
41	0xbed4cb5f	-0.4156141
42	0x3dacf33d	0.084448315
43	0x3e89331f	0.26796815
44	0x3dfc1b47	0.1230989
45	0x3e91ee4c	0.2850212
46	0x3ec60ecf	0.38683173
47	0xbea729d9	-0.32649115
48	0x3e687377	0.22700296
49	0x3d5f1350	0.054461777
50	0xbe6a8704	-0.22903067
51	0xbe85245e	-0.26004308
52	0xbd80a4d6	-0.0628144
53	0xbda17ecd	-0.078855135
54	0x3e306fb2	0.17230108
55	0x3e5563c6	0.20838842
56	0xbebdbb33	-0.37056884
57	0xbe62a85b	-0.22134535
58	0xbd8728f8	-0.06599611
59	0xbe027c33	-0.1274269
60	0xbdb5e1ce	-0.088809595
61	0x3e3188dd	0.17337365
62	0x3e4d3d07	0.20042811
63	0xbd734d18	-0.059399694
64	0xbda419b2	-0.080127135
65	0x3c779880	0.015112042
66	0xbe5f1eb6	-0.21789059
67	0xbdef1a0a	-0.116748884
68	0xbe299a97	-0.16562878
69	0xbc996dbb	-0.018729081
70	0xbe5d6ffa	-0.21624747
71	0x3d93e027	0.07220488
72	0x3e292dfb	0.16521446
73	0xbe74f4d2	-0.23921517
74	0x3e1d76fa	0.15377417
75	0x3e39627c	0.18103975
76	0x3c9573fe	0.018243786
77	0xbe9c5bce	-0.3053879
78	0x3ef4428b	0.47707018
79	0x3de5ccad	0.112206794
80	0xbdad0e86	-0.08450036
81	0xbdbbfc56	-0.09178989
82	0x3d413b18	0.047175497
83	0x3e49e505	0.1971627
84	0x3e2176da	0.15767995
85	0xbdfc3d7d	-0.123164155
86	0x3cf6b08e	0.030113485
87	0x3df6b620	0.12046456
88	0x3df02142	0.117250934
89	0x3d362f8d	0.04447894
90	0xbe2c12f4	-0.16804105
91	0xbe8c1ce3	-0.2736579
92	0xbd851472	-0.0649804
93	0xbbfa21ca	-0.0076334225
94	0xbe6a6afd	-0.22892375
95	0xbc8409dd	-0.016117984
96	0xbe7589c1	-0.2397833
97	0xbe6709e8	-0.22562373
98	0xbf304bb1	-0.68865496
99	0x3bb3e352	0.005489745
100	0x3ee75d26	0.45188254
101	0xbeda7fc4	-0.42675602
102	0x3e1e0682	0.1543217
103	0x3d65e45b	0.05612598
104	0x3c99d307	0.018777383
105	0xbe148c3b	-0.14506619
106	0xbe807311	-0.2508779
107	0x3f216b5e	0.63054454
108	0x3d4ca650	0.049963295
109	0xbf11b1f7	-0.5691218
110	0xbd4942ff	-0.049136158
111	0xbe3303f1	-0.17481972
112	0x3d5503a6	0.052005433
113	0x3eafff59	0.34374502
114	0x3e932c9f	0.2874498
115	0xbccc2921	-0.024921956
116	0x3e2770c4	0.1635161
117	0x3bb299a6	0.005450445
118	0x3df15c7b	0.117852174
119	0x3ed3326a	0.412494
120	0xbe705024	-0.23468071
121	0xbce73ac3	-0.028226262
122	0xbe2209d6	-0.15824065
123	0x3cb0ebd5	0.021596828
124	0x3d2dfb89	0.04247621
125	0x3e6ef95e	0.23337314
126	0x3e4b10c2	0.19830611
127	0x3d87cd85	0.066309966
128	0xbe02f654	-0.12789279
129	0x3e130659	0.1435789
130	0xbdbb70bb	-0.09152361
131	0x3c54fe70	0.013000116
132	0x3edde6d7	0.4334018
133	0xbe0dd7f8	-0.13851917
134	0xbba72acd	-0.005101538
135	0x3e863c1e	0.2621774
136	0x3f0ec1b8	0.5576434
137	0xbc5b95cf	-0.013402416
138	0xbd895469	-0.06705553
139	0xbe4130fa	-0.1886634
140	0x3e73aa0a	0.23795334
141	0xbf052c90	-0.5202112
142	0x3d4aa644	0.04947497
143	0x3e848a32	0.25886685
144	0x3e9c7a75	0.30562177
145	0xbdd0bbdf	-0.101920836
146	0xbe86a769	-0.262996
147	0x3e29260e	0.16518423
148	0x3ea08c61	0.313571
149	0xbe30b853	-0.17257814
150	0x3ece8847	0.40338346
151	0xbe8724ec	-0.26395357
152	0x3f081dae	0.5317029
153	0x3d983903	0.07432749
154	0xbda74cc9	-0.081689425
155	0xbe2860f5	-0.16443236
156	0xbc865e7d	-0.016402477
157	0xbedff68c	-0.43742788
158	0x3e944292	0.2895704
159	0xbc16a3b5	-0.009194304
160	0xbd35174a	-0.044211663
161	0xbe421cd7	-0.18956314
162	0xbd0c887d	-0.034309853
163	0x3da0761a	0.07835026
164	0x3e8ee799	0.2791107
165	0xbe49f806	-0.1972352
166	0x3e0729f6	0.131996
167	0xbe070ee1	-0.1318927
168	0xbf05fa2a	-0.52334845
169	0x3e96c32d	0.29445782
170	0xbdc5d934	-0.09660569
171	0x3ebdbbe0	0.370574
172	0xbe808c69	-0.25107124
173	0xbe966b36	-0.2937867
174	0xbe1df8e1	-0.15426971
175	0x3f16b1a2	0.58864796
176	0xbceba88a	-0.02876689
177	0xbebfeda4	-0.37485993
178	0x3cc9fb84	0.024656065
179	0x3e93f2e6	0.28896254
180	0x3df0bf5d	0.1175525
181	0xbebfefaf	-0.37487552
182	0xbd86f58f	-0.06589805
183	0xbe72d77e	-0.23715016
184	0xbc04d031	-0.008106277
185	0x3ec57e89	0.385731
186	0xbe8aaa34	-0.2708298
187	0xbe6db14c	-0.23212165
188	0x3da20907	0.07911878
189	0x3e093224	0.13398033
190	0xbeef2c05	-0.46713272
191	0xbd2e1ec4	-0.04250981
192	0x3e85937b	0.2608908
193	0xbe09473b	-0.13406079
194	0x3e247ad9	0.16062488
195	0xbd5f55c3	-0.054525148
196	0x3f057ce8	0.52143717
197	0xbe75d9d9	-0.24008884
198	0x3e0c6c1f	0.1371312
199	0x3e76e90d	0.2411234
200	0x3e64e1a1	0.22351696
201	0xbd945a78	-0.07243818
202	0xbe7c3250	-0.24628568
203	0xbe04196a	-0.1290032
204	0xbdf2f469	-0.11863024
205	0x3e0a9fed	0.1353757
206	0xbe510438	-0.20411766
207	0x3e2122c2	0.15735915
208	0xbe4c2bcb	-0.1993858
209	0x3e1512f4	0.14558011
210	0x3ecda180	0.40162277
211	0x3eb12f1e	0.3460626
212	0x3eac3814	0.33636534
213	0xbe2a67cc	-0.16641158
214	0x3e25df06	0.16198358
215	0xbe3b11ab	-0.18268459
216	0x3f238f01	0.6389008
217	0xbe2ca71e	-0.16860625
218	0xbe761f68	-0.24035418
219	0xbe126f38	-0.14300239
220	0x3df3cb66	0.119040295
221	0x3e2d8776	0.16946205
222	0xbc7a6781	-0.015283466
223	0xbeb28cc5	-0.34873024
224	0xbe911694	-0.28337538
225	0x3cce4135	0.025177578
226	0xbc696a46	-0.014246529
227	0x3cef262d	0.029193008
228	0x3e1a7cfd	0.15086742
229	0x3d09efb7	0.033675876
230	0xbe36f1c9	-0.17865671
231	0x3e823874	0.25433695
232	0xbdd9f393	-0.10642161
233	0xbde881cf	-0.11352884
234	0x3d81c9d4	0.06337324
235	0x3eb854fa	0.36002332
236	0x3e805d4e	0.25071186
237	0xbf1df6cf	-0.61704725
238	0xbe1e08b3	-0.15433006
239	0x3f0a659f	0.5406131
240	0x3d2e221a	0.04251299
241	0x3e0c0806	0.13674936
242	0x3db0dea1	0.08636213
243	0xbea28594	-0.31742537
244	0xbc963ba0	-0.018338978
245	0x3d8971e0	0.06711173
246	0x3c91967e	0.017771956
247	0x3e82900d	0.25500527
248	0xbec17a30	-0.37788534
249	0x3ca2c173	0.019867634
250	0x3e43802a	0.1909186
251	0xbeac8f91	-0.33703282
252	0x3d750c86	0.059826396
253	0x3ec3bd2f	0.38230273
254	0x3df6acc1	0.12044669
255	0x3dd3a838	0.103348196

sequential.2.bias f4 [32]
0	0x3dc1ad62	0.09456898
1	0x3e4fe6f8	0.20302951
2	0xbd897c2d	-0.06713138
3	0x3ddf14f0	0.108926654
4	0x3e4c2440	0.19935703
5	0x3e27d175	0.16388495
6	0xbdaf2d54	-0.085535675
7	0xbc1b87e1	-0.009492845
8	0xbe80a82f	-0.25128314
9	0xbe5bdf47	-0.21471892
10	0xbdbfd8e0	-0.093675375
11	0x3e2618f3	0.16220455
12	0x3e020117	0.12695728
13	0xbe596682	-0.2123051
14	0xbdb98709	-0.09058959
15	0x3c1e1e0c	0.009650718
16	0x3e50d113	0.20392255
17	0x3daeeb77	0.08541005
18	0x3e1828a0	0.14859247
19	0x3e28fd6f	0.16502927
20	0xbe53cac2	-0.20682815
21	0x3dfa552e	0.12223278
22	0x3d430499	0.047611807
23	0xbdb8213b	-0.08990713
24	0x3dfc10e1	0.12307907
25	0x3e135782	0.1438885
26	0xbde49ab7	-0.11162322
27	0xbd80a581	-0.06281567
28	0x3d9a0447	0.07520347
29	0xbc03d094	-0.008045334
30	0x3e4a2dec	0.1974408
31	0xbe732360	-0.23743963

sequential.4.weight f4 [46, 32, 1, 1]
0	0xbd9a1cf4	-0.075250536
1	0xbec44b1d	-0.38338557
2	0x3dd8d530	0.10587537
3	0xbdfc41cd	-0.12317238
4	0xbbd64234	-0.0065386537
5	0x3d522655	0.051306088
6	0xc00c6056	-2.1933799
7	0xbe304a26	-0.17215785
8	0xbd0bc413	-0.034122538
9	0x3e780b90	0.2422316
10	0xbe6b0687	-0.22951709
11	0xbb314ffe	-0.0027055736
12	0x3e64fc14	0.22361785
13	0x3e6fc7ff	0.23416136
14	0xbf8284de	-1.0196798
15	0x3e553ab7	0.20823179
16	0xbe7c5c22	-0.24644521
17	0x3e5de6cc	0.21670073
18	0x3da5ffd3	0.08105435
19	0xbde4fca6	-0.11181001
20	0xbc540c5d	-0.012942401
21	0xbed2e17f	-0.41187665
22	0x3d2a74c3	0.04161526
23	0xbd22a9b8	-0.039712638
24	0xbdb07ca4	-0.08617523
25	0x3b97000e	0.004608161
26	0x3d7bf8b2	0.06151647
27	0x3e0e0e84	0.13872725
28	0xbe71217e	-0.23547933
29	0x3e1cb370	0.15302825
30	0xbd9ab72a	-0.07554467
31	0xbde686e1	-0.11256195
32	0x3ddd7f60	0.108153105
33	0xbec69c93	-0.38791332
34	0xbc7bd9f1	-0.0153717855
35	0x3d79b1a3	0.060960423
36	0xbc0aed9f	-0.008479505
37	0x3cc95047	0.024574412
38	0xbf907f2a	-1.1288807
39	0x3b92d059	0.0044804034
40	0xbdcce3aa	-0.10004361
41	0x3c33be2c	0.0109706335
42	0xbdf7d957	-0.12102001
43	0xbe4b5e7f	-0.19860266
44	0x3e23bdae	0.15990326
45	0x3eb69635	0.35661474
46	0xbf42ad3e	-0.76045597
47	0x3dfe128b	0.124058805
48	0xbea0b7a7	-0.31390116
49	0x3de6d84e	0.112717256
50	0x3e954105	0.29151168
51	0xbe8c0f27	-0.2735531
52	0x3e39da1a	0.18149605
53	0xbf05e44f	-0.52301496
54	0xbba0321c	-0.004888786
55	0x3c5451f2	0.01295899
56	0xbdd87650	-0.10569441
57	0xbe128431	-0.1430824
58	0xbe0286b9	-0.12746705
59	0x3de702b9	0.11279816
60	0xbdb5886e	-0.088639125
61	0xbc8e0c3e	-0.017339822
62	0x3db39d38	0.087702215
63	0x3d710bdf	0.05884921
64	0xbd6e0897	-0.05811366
65	0xbe4b7444	-0.1986857
66	0xbdfa69e0	-0.12227225
67	0xbd5a747e	-0.05333375
68	0x3bc94b41	0.006143004
69	0xbdc1d8a3	-0.09465148
70	0xbe839744	-0.25701344
71	0x3e284cef	0.16435598
72	0xbdba7b0f	-0.09105503
73	0x3e8dddbe	0.27708238
74	0xbe08faa6	-0.13376865
75	0xbcd2269a	-0.025653172
76	0x3e3c1274	0.18366414
77	0x3c9a4bcd	0.018834973
78	0xbec6e10d	-0.38843575
79	0x3da102c1	0.078618534
80	0xbe710dd8	-0.23540437
81	0x3e5f3ee5	0.21801336
82	0x3e8eb937	0.27875683
83	0xbe345ba8	-0.17613089
84	0x3e1943c6	0.1496726
85	0xbf0e8fea	-0.55688345
86	0x3e84347f	0.258213
87	0x3d988958	0.07448071
88	0xbe111f45	-0.14172085
89	0xbe1b377c	-0.15157884
90	0xbcbaabc3	-0.02278698
91	0xbc342eab	-0.010997455
92	0xbd138919	-0.03601942
93	0x3d9c7f29	0.076414414
94	0x3de13962	0.10997273
95	0xbde47713	-0.11155524
96	0x3e0779d5	0.13230069
97	0xbe6c00c6	-0.2304717
98	0x3cdcda14	0.026959457
99	0x3e1abdb4	0.15111428
100	0x3dcc2762	0.09968449
101	0x3bb7c287	0.0056079063
102	0x3d6c6a59	0.05771861
103	0x3dbe144a	0.092812136
104	0xbd1e67ee	-0.038673334
105	0x3e5ec0e8	0.21753275
106	0x3cf7db15	0.030255834
107	0xbe24fd03	-0.16112141
108	0x3dc5eede	0.09664701
109	0xbd2394c4	-0.039936796
110	0xbe74f475	-0.23921378
111	0xbd4e0865	-0.050300974
112	0xbe981f90	-0.2971158
113	0x3e9762d7	0.29567596
114	0x3e93379f	0.28753373
115	0xbe671874	-0.22567922
116	0xbd32f677	-0.04369208
117	0xbefa5164	-0.4889022
118	0x3dc76c01	0.09737397
119	0x3dc470b8	0.09591812
120	0x3dda8b4d	0.10671101
121	0x3d472ab2	0.0486247
122	0x3d611e4e	0.05496054
123	0x3dff4515	0.12464348
124	0xbc6638f2	-0.014051663
125	0xbdd5d619	-0.104412265
126	0xbe24b508	-0.16084683
127	0xbb3974bf	-0.0028298346
128	0x3e1760e2	0.14783052
129	0xbeb4d857	-0.35321304
130	0x3d0ba415	0.034092028
131	0xbdc412d5	-0.095739044
132	0x3bbdfebd	0.0057981894
133	0x3d95fa95	0.07323185
134	0x3eac2d15	0.33628145
135	0x3e07fe8e	0.13280699
136	0x3dfd9e9c	0.12383768
137	0x3e9e254d	0.30887833
138	0x3d8596b7	0.06522887
139	0xbd98e64c	-0.07465801
140	0x3ddf48c0	0.10902548
141	0x3e59e902	0.21280292
142	0xbde3de4c	-0.11126384
143	0x3e1cad04	0.15300375
144	0xbe7d24b7	-0.24721037
145	0x3e847d18	0.2587669
146	0x3ea9fc99	0.3320053
147	0xbea4a5ac	-0.32157648
148	0xbdea6c0e	-0.11446391
149	0xbe108176	-0.14111885
150	0x3d645119	0.055741403
151	0x3e0d6e56	0.13811621
152	0xbdb49df2	-0.08819188
153	0xbdbbcfce	-0.09170495
154	0x3ba9d4d7	0.005182843
155	0xbc0fc309	-0.008774527
156	0x3dc00033	0.09375038
157	0x3e0addb7	0.1356114
158	0xbdde759c	-0.10862276
159	0xbdf02f85	-0.11727814
160	0x3e8ab9d2	0.27094895
161	0xbec9f504	-0.39444745
162	0xbd340887	-0.043953445
163	0xbd8e19ee	-0.069385394
164	0xbe065833	-0.13119583
165	0x3e2b8c4d	0.16752739
166	0x3eedfebc	0.4648341
167	0x3e8cca7f	0.27498242
168	0x3e03d342	0.12873557
169	0x3e9e2a54	0.3089167
170	0x3d8342e2	0.06409241
171	0xbd8ac17a	-0.06775184
172	0x3e095fb6	0.13415417
173	0xbd4fc022	-0.05072034
174	0x3de6e87a	0.1127481
175	0x3de5827d	0.11206529
176	0xbeee684a	-0.4656394
177	0xbce6a466	-0.028154563
178	0x3e96f82e	0.2948622
179	0xbe94cec6	-0.29064006
180	0x3df316d2	0.11869587
181	0xbeb065d7	-0.34452698
182	0x3ce4749b	0.027887633
183	0x3de9e776	0.11421101
184	0xbd1d70db	-0.038437705
185	0xbb47e618	-0.0030502137
186	0xbd810adf	-0.063009016
187	0x3ca89e33	0.020583248
188	0x3d7679e8	0.060174853
189	0x3e3e7d0b	0.18602388
190	0x3d3f248c	0.046665713
191	0x3c210cb1	0.009829686
192	0x3e80653a	0.2507723
193	0xbebc1931	-0.3673797
194	0x3da06724	0.078321725
195	0x3de67895	0.11253468
196	0xbddcc8a7	-0.10780459
197	0x3de6c551	0.11268104
198	0x3f1afd5e	0.6054286
199	0x3cc5e647	0.024157656
200	0x3e5536b6	0.20821652
201	0x3ee6f260	0.45106792
202	0xbc0ed4ba	-0.00871771
203	0xbe242d8a	-0.16032997
204	0x3eb7673a	0.35820943
205	0x3e0dda4a	0.13852802
206	0x3eb9cbc2	0.36288267
207	0x3d33cbe3	0.043895613
208	0xbe8161a2	-0.252698
209	0x3c726c59	0.01479634
210	0x3e14070c	0.14455813
211	0xbe2aafe1	-0.16668655
212	0x3d804af7	0.062642984
213	0xbe948394	-0.29006636
214	0x3d07dd08	0.033169776
215	0x3cffbf66	0.031219196
216	0xbd693c46	-0.056942247
217	0xbe5a1a9e	-0.21299216
218	0xbd8d7c1d	-0.06908438
219	0xbcc97f58	-0.024596855
220	0x3e720b6a	0.23637167
221	0x3e158707	0.1460229
222	0xbe2e80d9	-0.17041339
223	0x3d179ae7	0.03701296
224	0x3e7ca49f	0.24672173
225	0xbec04f9b	-0.37560734
226	0xbd0e407b	-0.034729462
227	0x3dc72bca	0.09725149
228	0xbe458d77	-0.19292246
229	0xbddd64e7	-0.10810261
230	0x3f161be2	0.58636296
231	0x3d079ec4	0.033110395
232	0x3ed51854	0.41620123
233	0x3edad9a0	0.4274416
234	0x3e5f1a26	0.21787319
235	0xbdbae674	-0.09125987
236	0x3e092afe	0.13395306
237	0x3e6724d1	0.22572638
238	0x3e47d97e	0.1951656
239	0xbd2ab21c	-0.041673765
240	0xbe203335	-0.15644534
241	0x3e1b11c1	0.15143491
242	0x3daa01a2	0.08301093
243	0xbe198b8d	-0.1499464
244	0x3b94f036	0.004545237
245	0xbe23be5b	-0.15990584
246	0x3d9bfe9f	0.076169245
247	0xbd43ff9d	-0.047851194
248	0x3e5554f9	0.20833196
249	0xbd168ba0	-0.03675425
250	0xbdf1b985	-0.11802963
251	0x3e13d4ee	0.14436695
252	0x3ebbc1fa	0.3667143
253	0x3e14b34d	0.14521523
254	0xbe0a6840	-0.1351633
255	0x3ca784e6	0.020449113

sequential.4.bias f4 [46]
0	0xbd68b572	-0.056813665
1	0xbd8eaded	-0.069667675
2	0xbd9e0bde	-0.07717107
3	0xbdc3ded9	-0.09563989
4	0xbceaac0f	-0.028646497
5	0x3c532908	0.012888201
6	0x3cab6a78	0.020924792
7	0x3d489ce7	0.04897776
8	0xbdac7798	-0.08421248
9	0x397048b2	0.00022915265
10	0x3d571625	0.052511353
11	0x3d880d6b	0.06643184
12	0x3e07ecbb	0.132739
13	0xbd06a742	-0.032874353
14	0x3df9eb85	0.12203125
15	0xbd006d89	-0.03135446
16	0xbd17c7a3	-0.037055623
17	0xbc582438	-0.013192229
18	0xbd239015	-0.03993233
19	0x3d75e7a4	0.060035363
20	0xbd872830	-0.06599462
21	0xbdb9b9ea	-0.090686634
22	0x3d959afe	0.07304953
23	0xbd578c87	-0.05262425
24	0xbad85dac	-0.0016507409
25	0xbcd357ef	-0.025798766
26	0x3e34c6fb	0.1765403
27	0x3d14b6cb	0.036307137
28	0x3e1489a1	0.14505626
29	0xbd3f4c00	-0.04670334
30	0xbc09d268	-0.008411981
31	0x3c80110c	0.015633129
32	0x3df5601c	0.11981222
33	0xbddf5e20	-0.10906625
34	0x3d881409	0.066444464
35	0xbd834d9c	-0.06411287
36	0xbe28048c	-0.16407984
37	0x3c905ea3	0.017623251
38	0xbdb57545	-0.08860258
39	0xbd40ed72	-0.047101445
40	0xbd91d2a2	-0.07120253
41	0x3d4674f9	0.048451398
42	0xbd8fe029	-0.07025177
43	0xbc2b8c44	-0.010470454
44	0xbe20c8eb	-0.15701644
45	0xbd1e0c94	-0.038586214
